…
n/Main.py" -dataset mnist
Using TensorFlow backend.

    Starting the application with the following options

    dataset: mnist


generated new net, invalid config of net
Ready to train [C(256,3,1), C(512,3,1), D(1,1), SM(10)]
start, 0, 1, 0, 0, 28, 0, 0
conv, 1, 256, 3, 1, 28, 0, 0
conv, 2, 512, 3, 1, 28, 0, 0
dropout, 2, 1, 0, 0, 28, 1, 0
conv, 3, 512, 3, 1, 28, 0, 1
10
_________________________________________________________________
Layer (type)                 Output Shape              Param #
=================================================================
conv2d_1 (Conv2D)            (None, 28, 28, 256)       7168
_________________________________________________________________
conv2d_2 (Conv2D)            (None, 28, 28, 512)       1180160
_________________________________________________________________
dropout_1 (Dropout)          (None, 28, 28, 512)       0
_________________________________________________________________
flatten_1 (Flatten)          (None, 401408)            0
_________________________________________________________________
dense_1 (Dense)              (None, 10)                4014090
=================================================================
Total params: 5,201,418
Trainable params: 5,201,418
Non-trainable params: 0
_________________________________________________________________
2018-10-13 18:20:31.864889: I tensorflow/core/platform/cpu_feature_guard.cc:141] Your CPU supports instructions that this TensorFlow binary was not compiled to use: AVX2 FMA
Train on 48000 samples, validate on 12000 samples
…
255445, 19: 0.9984166679903865, 20: 0.9988541676973303}}
Ready to train [C(256,5,1), C(64,1,1), D(1,2), C(256,3,1), C(64,5,1), D(2,2), SM(10)]
start, 0, 1, 0, 0, 28, 0, 0
conv, 1, 256, 5, 1, 28, 0, 0
conv, 2, 64, 1, 1, 28, 0, 0
dropout, 2, 1, 0, 0, 28, 2, 0
conv, 3, 256, 3, 1, 28, 0, 0
conv, 4, 64, 5, 1, 28, 0, 0
dropout, 4, 2, 0, 0, 28, 2, 0
conv, 5, 64, 5, 1, 28, 0, 1
10
_________________________________________________________________
Layer (type)                 Output Shape              Param #
=================================================================
conv2d_3 (Conv2D)            (None, 28, 28, 256)       19456
_________________________________________________________________
conv2d_4 (Conv2D)            (None, 28, 28, 64)        16448
_________________________________________________________________
dropout_2 (Dropout)          (None, 28, 28, 64)        0
_________________________________________________________________
conv2d_5 (Conv2D)            (None, 28, 28, 256)       147712
_________________________________________________________________
conv2d_6 (Conv2D)            (None, 28, 28, 64)        409664
_________________________________________________________________
dropout_3 (Dropout)          (None, 28, 28, 64)        0
_________________________________________________________________
flatten_2 (Flatten)          (None, 50176)             0
_________________________________________________________________
dense_2 (Dense)              (None, 10)                501770
=================================================================
Total params: 1,095,050
Trainable params: 1,095,050
Non-trainable params: 0
_________________________________________________________________
Train on 48000 samples, validate on 12000 samples
Epoch 1/20
 - 90s - loss: 0.2937 - acc: 0.9488 - val_loss: 0.1497 - val_acc: 0.9716
Epoch 2/20
 - 89s - loss: 0.1116 - acc: 0.9802 - val_loss: 0.0819 - val_acc: 0.9858
…
644, 17: 0.9955833368003368, 18: 0.996395835839212, 19: 0.9960625030721227, 20: 0.9959166695674261}}
generated new net, invalid config of net
Ready to train [C(256,5,1), C(128,3,1), D(1,1), GAP(10), SM(10)]
start, 0, 1, 0, 0, 28, 0, 0
conv, 1, 256, 5, 1, 28, 0, 0
conv, 2, 128, 3, 1, 28, 0, 0
dropout, 2, 1, 0, 0, 28, 1, 0
gap, 3, 0, 0, 0, 1, 0, 0
gap, 4, 0, 0, 0, 1, 0, 1
10
_________________________________________________________________
Layer (type)                 Output Shape              Param #
=================================================================
conv2d_7 (Conv2D)            (None, 28, 28, 256)       19456
_________________________________________________________________
conv2d_8 (Conv2D)            (None, 28, 28, 128)       295040
_________________________________________________________________
dropout_4 (Dropout)          (None, 28, 28, 128)       0
_________________________________________________________________
average_pooling2d_1 (Average (None, 27, 27, 128)       0
_________________________________________________________________
flatten_3 (Flatten)          (None, 93312)             0
_________________________________________________________________
dense_3 (Dense)              (None, 10)                933130
=================================================================
Total params: 1,247,626
Trainable params: 1,247,626
Non-trainable params: 0
_________________________________________________________________
Train on 48000 samples, validate on 12000 samples
Epoch 1/20
 - 68s - loss: 0.2054 - acc: 0.9590 - val_loss: 0.1010 - val_acc: 0.9798
Epoch 2/20
 - 67s - loss: 0.0773 - acc: 0.9845 - val_loss: 0.0771 - val_acc: 0.9833
…
2, 19: 0.9976458351438244, 20: 0.9981875016043583}}
Ready to train [C(512,5,1), C(128,1,1), D(1,2), C(128,1,1), C(512,5,1), D(2,2), SM(10)]
start, 0, 1, 0, 0, 28, 0, 0
conv, 1, 512, 5, 1, 28, 0, 0
conv, 2, 128, 1, 1, 28, 0, 0
dropout, 2, 1, 0, 0, 28, 2, 0
conv, 3, 128, 1, 1, 28, 0, 0
conv, 4, 512, 5, 1, 28, 0, 0
dropout, 4, 2, 0, 0, 28, 2, 0
conv, 5, 512, 5, 1, 28, 0, 1
10
_________________________________________________________________
Layer (type)                 Output Shape              Param #
=================================================================
conv2d_9 (Conv2D)            (None, 28, 28, 512)       38912
_________________________________________________________________
conv2d_10 (Conv2D)           (None, 28, 28, 128)       65664
_________________________________________________________________
dropout_5 (Dropout)          (None, 28, 28, 128)       0
_________________________________________________________________
conv2d_11 (Conv2D)           (None, 28, 28, 128)       16512
_________________________________________________________________
conv2d_12 (Conv2D)           (None, 28, 28, 512)       1638912
_________________________________________________________________
dropout_6 (Dropout)          (None, 28, 28, 512)       0
_________________________________________________________________
flatten_4 (Flatten)          (None, 401408)            0
_________________________________________________________________
dense_4 (Dense)              (None, 10)                4014090
=================================================================
Total params: 5,774,090
Trainable params: 5,774,090
Non-trainable params: 0
_________________________________________________________________
Train on 48000 samples, validate on 12000 samples
Epoch 1/20
 - 231s - loss: 0.3463 - acc: 0.9547 - val_loss: 0.1424 - val_acc: 0.9814
Epoch 2/20
 - 229s - loss: 0.1153 - acc: 0.9823 - val_loss: 0.1016 - val_acc: 0.9833
…
 0.9972291690607865, 16: 0.9967500026648243, 17: 0.9973958354443312, 18: 0.9975208355113864, 19: 0.9977291685218612, 20: 0.9979583350941539}}
Ready to train [C(256,5,1), C(128,5,1), D(1,1), GAP(10), SM(10)]
start, 0, 1, 0, 0, 28, 0, 0
conv, 1, 256, 5, 1, 28, 0, 0
conv, 2, 128, 5, 1, 28, 0, 0
dropout, 2, 1, 0, 0, 28, 1, 0
gap, 3, 0, 0, 0, 1, 0, 0
gap, 4, 0, 0, 0, 1, 0, 1
10
_________________________________________________________________
Layer (type)                 Output Shape              Param #
=================================================================
conv2d_13 (Conv2D)           (None, 28, 28, 256)       19456
_________________________________________________________________
conv2d_14 (Conv2D)           (None, 28, 28, 128)       819328
_________________________________________________________________
dropout_7 (Dropout)          (None, 28, 28, 128)       0
_________________________________________________________________
average_pooling2d_2 (Average (None, 27, 27, 128)       0
_________________________________________________________________
flatten_5 (Flatten)          (None, 93312)             0
_________________________________________________________________
dense_5 (Dense)              (None, 10)                933130
=================================================================
Total params: 1,771,914
Trainable params: 1,771,914
Non-trainable params: 0
_________________________________________________________________
Train on 48000 samples, validate on 12000 samples
Epoch 1/20
 - 85s - loss: 0.1962 - acc: 0.9625 - val_loss: 0.0960 - val_acc: 0.9818
Epoch 2/20
 - 84s - loss: 0.0758 - acc: 0.9846 - val_loss: 0.0644 - val_acc: 0.9872
…
3167, 19: 0.9983750011771917, 20: 0.9984791679928701}}
Ready to train [C(256,3,1), C(512,1,1), D(1,2), C(256,3,1), C(64,5,1), D(2,2), SM(10)]
start, 0, 1, 0, 0, 28, 0, 0
conv, 1, 256, 3, 1, 28, 0, 0
conv, 2, 512, 1, 1, 28, 0, 0
dropout, 2, 1, 0, 0, 28, 2, 0
conv, 3, 256, 3, 1, 28, 0, 0
conv, 4, 64, 5, 1, 28, 0, 0
dropout, 4, 2, 0, 0, 28, 2, 0
conv, 5, 64, 5, 1, 28, 0, 1
10
_________________________________________________________________
Layer (type)                 Output Shape              Param #
=================================================================
conv2d_15 (Conv2D)           (None, 28, 28, 256)       7168
_________________________________________________________________
conv2d_16 (Conv2D)           (None, 28, 28, 512)       131584
_________________________________________________________________
dropout_8 (Dropout)          (None, 28, 28, 512)       0
_________________________________________________________________
conv2d_17 (Conv2D)           (None, 28, 28, 256)       1179904
_________________________________________________________________
conv2d_18 (Conv2D)           (None, 28, 28, 64)        409664
_________________________________________________________________
dropout_9 (Dropout)          (None, 28, 28, 64)        0
_________________________________________________________________
flatten_6 (Flatten)          (None, 50176)             0
_________________________________________________________________
dense_6 (Dense)              (None, 10)                501770
=================================================================
Total params: 2,230,090
Trainable params: 2,230,090
Non-trainable params: 0
_________________________________________________________________
Train on 48000 samples, validate on 12000 samples
Epoch 1/20
 - 233s - loss: 0.3325 - acc: 0.9469 - val_loss: 0.1213 - val_acc: 0.9806
Epoch 2/20
 - 226s - loss: 0.1058 - acc: 0.9806 - val_loss: 0.0802 - val_acc: 0.9856
…
976, 19: 0.9996041670441628, 20: 0.9997083336114884}}
Ready to train [C(128,5,1), C(512,5,1), D(1,2), C(64,5,1), C(512,3,1), D(2,2), SM(10)]
start, 0, 1, 0, 0, 28, 0, 0
conv, 1, 128, 5, 1, 28, 0, 0
conv, 2, 512, 5, 1, 28, 0, 0
dropout, 2, 1, 0, 0, 28, 2, 0
conv, 3, 64, 5, 1, 28, 0, 0
conv, 4, 512, 3, 1, 28, 0, 0
dropout, 4, 2, 0, 0, 28, 2, 0
conv, 5, 512, 3, 1, 28, 0, 1
10
_________________________________________________________________
Layer (type)                 Output Shape              Param #
=================================================================
conv2d_20 (Conv2D)           (None, 28, 28, 128)       9728
_________________________________________________________________
conv2d_21 (Conv2D)           (None, 28, 28, 512)       1638912
_________________________________________________________________
dropout_10 (Dropout)         (None, 28, 28, 512)       0
_________________________________________________________________
conv2d_22 (Conv2D)           (None, 28, 28, 64)        819264
_________________________________________________________________
conv2d_23 (Conv2D)           (None, 28, 28, 512)       295424
_________________________________________________________________
dropout_11 (Dropout)         (None, 28, 28, 512)       0
_________________________________________________________________
flatten_8 (Flatten)          (None, 401408)            0
_________________________________________________________________
dense_8 (Dense)              (None, 10)                4014090
=================================================================
Total params: 6,777,418
Trainable params: 6,777,418
Non-trainable params: 0
_________________________________________________________________
Train on 48000 samples, validate on 12000 samples
Epoch 1/20
2018-10-13 23:29:53.300570: W tensorflow/core/common_runtime/bfc_allocator.cc:219] Allocator (GPU_0_bfc) ran out of memory trying to allocate 1.87GiB. The caller indicates that this is not a failure, but may mean that there could be performance gains if more memory were available.
…
01470248}}
generated new net, invalid config of net
Ready to train [C(512,3,1), C(256,3,1), D(1,2), C(128,3,1), C(256,1,1), D(2,2), SM(10)]
start, 0, 1, 0, 0, 28, 0, 0
conv, 1, 512, 3, 1, 28, 0, 0
conv, 2, 256, 3, 1, 28, 0, 0
dropout, 2, 1, 0, 0, 28, 2, 0
conv, 3, 128, 3, 1, 28, 0, 0
conv, 4, 256, 1, 1, 28, 0, 0
dropout, 4, 2, 0, 0, 28, 2, 0
conv, 5, 256, 1, 1, 28, 0, 1
10
_________________________________________________________________
Layer (type)                 Output Shape              Param #
=================================================================
conv2d_24 (Conv2D)           (None, 28, 28, 512)       14336
_________________________________________________________________
conv2d_25 (Conv2D)           (None, 28, 28, 256)       1179904
_________________________________________________________________
dropout_12 (Dropout)         (None, 28, 28, 256)       0
_________________________________________________________________
conv2d_26 (Conv2D)           (None, 28, 28, 128)       295040
_________________________________________________________________
conv2d_27 (Conv2D)           (None, 28, 28, 256)       33024
_________________________________________________________________
dropout_13 (Dropout)         (None, 28, 28, 256)       0
_________________________________________________________________
flatten_9 (Flatten)          (None, 200704)            0
_________________________________________________________________
dense_9 (Dense)              (None, 10)                2007050
=================================================================
Total params: 3,529,354
Trainable params: 3,529,354
Non-trainable params: 0
_________________________________________________________________
Train on 48000 samples, validate on 12000 samples
Epoch 1/20
 - 216s - loss: 0.3655 - acc: 0.9507 - val_loss: 0.1650 - val_acc: 0.9763
Epoch 2/20
 - 215s - loss: 0.1268 - acc: 0.9802 - val_loss: 0.0988 - val_acc: 0.9840
…
261694, 19: 0.99718750230968, 20: 0.9977500018974145}}
Ready to train [C(512,3,1), C(256,5,1), D(1,2), C(256,5,1), C(64,5,1), D(2,2), SM(10)]
start, 0, 1, 0, 0, 28, 0, 0
conv, 1, 512, 3, 1, 28, 0, 0
conv, 2, 256, 5, 1, 28, 0, 0
dropout, 2, 1, 0, 0, 28, 2, 0
conv, 3, 256, 5, 1, 28, 0, 0
conv, 4, 64, 5, 1, 28, 0, 0
dropout, 4, 2, 0, 0, 28, 2, 0
conv, 5, 64, 5, 1, 28, 0, 1
10
_________________________________________________________________
Layer (type)                 Output Shape              Param #
=================================================================
conv2d_28 (Conv2D)           (None, 28, 28, 512)       14336
_________________________________________________________________
conv2d_29 (Conv2D)           (None, 28, 28, 256)       3277056
_________________________________________________________________
dropout_14 (Dropout)         (None, 28, 28, 256)       0
_________________________________________________________________
conv2d_30 (Conv2D)           (None, 28, 28, 256)       1638656
_________________________________________________________________
conv2d_31 (Conv2D)           (None, 28, 28, 64)        409664
_________________________________________________________________
dropout_15 (Dropout)         (None, 28, 28, 64)        0
_________________________________________________________________
flatten_10 (Flatten)         (None, 50176)             0
_________________________________________________________________
dense_10 (Dense)             (None, 10)                501770
=================================================================
Total params: 5,841,482
Trainable params: 5,841,482
Non-trainable params: 0
_________________________________________________________________
Train on 48000 samples, validate on 12000 samples
Epoch 1/20
2018-10-14 02:27:52.179482: W tensorflow/core/common_runtime/bfc_allocator.cc:219] Allocator (GPU_0_bfc) ran out of memory trying to allocate 1.87GiB. The caller indicates that this is not a failure, but may mean that there could be performance gains if more memory were available.
…
7, 19: 0.9959375030050676, 20: 0.9962916693339745}}
Ready to train [C(256,1,1), C(512,5,1), D(1,2), C(256,3,1), C(256,5,1), D(2,2), SM(10)]
start, 0, 1, 0, 0, 28, 0, 0
conv, 1, 256, 1, 1, 28, 0, 0
conv, 2, 512, 5, 1, 28, 0, 0
dropout, 2, 1, 0, 0, 28, 2, 0
conv, 3, 256, 3, 1, 28, 0, 0
conv, 4, 256, 5, 1, 28, 0, 0
dropout, 4, 2, 0, 0, 28, 2, 0
conv, 5, 256, 5, 1, 28, 0, 1
10
_________________________________________________________________
Layer (type)                 Output Shape              Param #
=================================================================
conv2d_32 (Conv2D)           (None, 28, 28, 256)       1024
_________________________________________________________________
conv2d_33 (Conv2D)           (None, 28, 28, 512)       3277312
_________________________________________________________________
dropout_16 (Dropout)         (None, 28, 28, 512)       0
_________________________________________________________________
conv2d_34 (Conv2D)           (None, 28, 28, 256)       1179904
_________________________________________________________________
conv2d_35 (Conv2D)           (None, 28, 28, 256)       1638656
_________________________________________________________________
dropout_17 (Dropout)         (None, 28, 28, 256)       0
_________________________________________________________________
flatten_11 (Flatten)         (None, 200704)            0
_________________________________________________________________
dense_11 (Dense)             (None, 10)                2007050
=================================================================
Total params: 8,103,946
Trainable params: 8,103,946
Non-trainable params: 0
_________________________________________________________________
Train on 48000 samples, validate on 12000 samples
Epoch 1/20
2018-10-14 04:21:18.680188: W tensorflow/core/common_runtime/bfc_allocator.cc:219] Allocator (GPU_0_bfc) ran out of memory trying to allocate 1.14GiB. The caller indicates that this is not a failure, but may mean that there could be performance gains if more memory were available.
…
8349103729}}
generated new net, invalid config of net
Ready to train [C(256,3,1), C(256,3,1), D(1,2), C(64,1,1), C(512,3,1), D(2,2), SM(10)]
start, 0, 1, 0, 0, 28, 0, 0
conv, 1, 256, 3, 1, 28, 0, 0
conv, 2, 256, 3, 1, 28, 0, 0
dropout, 2, 1, 0, 0, 28, 2, 0
conv, 3, 64, 1, 1, 28, 0, 0
conv, 4, 512, 3, 1, 28, 0, 0
dropout, 4, 2, 0, 0, 28, 2, 0
conv, 5, 512, 3, 1, 28, 0, 1
10
_________________________________________________________________
Layer (type)                 Output Shape              Param #
=================================================================
conv2d_36 (Conv2D)           (None, 28, 28, 256)       7168
_________________________________________________________________
conv2d_37 (Conv2D)           (None, 28, 28, 256)       590080
_________________________________________________________________
dropout_18 (Dropout)         (None, 28, 28, 256)       0
_________________________________________________________________
conv2d_38 (Conv2D)           (None, 28, 28, 64)        16448
_________________________________________________________________
conv2d_39 (Conv2D)           (None, 28, 28, 512)       295424
_________________________________________________________________
dropout_19 (Dropout)         (None, 28, 28, 512)       0
_________________________________________________________________
flatten_12 (Flatten)         (None, 401408)            0
_________________________________________________________________
dense_12 (Dense)             (None, 10)                4014090
=================================================================
Total params: 4,923,210
Trainable params: 4,923,210
Non-trainable params: 0
_________________________________________________________________
Train on 48000 samples, validate on 12000 samples
Epoch 1/20
 - 213s - loss: 0.3041 - acc: 0.9534 - val_loss: 0.1400 - val_acc: 0.9761
Epoch 2/20
 - 212s - loss: 0.1073 - acc: 0.9820 - val_loss: 0.0953 - val_acc: 0.9826
…
8564, 14: 0.9984791680549582, 15: 0.9984166679282983, 16: 0.9988958342621724, 17: 0.9988750010107954, 18: 0.9990208342050513, 19: 0.9991458341479301, 20: 0.9991458341479301}}
Ready to train [C(128,5,1), C(64,3,1), D(1,1), SM(10)]
start, 0, 1, 0, 0, 28, 0, 0
conv, 1, 128, 5, 1, 28, 0, 0
conv, 2, 64, 3, 1, 28, 0, 0
dropout, 2, 1, 0, 0, 28, 1, 0
conv, 3, 64, 3, 1, 28, 0, 1
10
_________________________________________________________________
Layer (type)                 Output Shape              Param #
=================================================================
conv2d_41 (Conv2D)           (None, 28, 28, 128)       9728
_________________________________________________________________
conv2d_42 (Conv2D)           (None, 28, 28, 64)        73792
_________________________________________________________________
dropout_20 (Dropout)         (None, 28, 28, 64)        0
_________________________________________________________________
flatten_14 (Flatten)         (None, 50176)             0
_________________________________________________________________
dense_14 (Dense)             (None, 10)                501770
=================================================================
Total params: 585,290
Trainable params: 585,290
Non-trainable params: 0
_________________________________________________________________
Train on 48000 samples, validate on 12000 samples
Epoch 1/20
 - 32s - loss: 0.2262 - acc: 0.9473 - val_loss: 0.1017 - val_acc: 0.9820
Epoch 2/20
 - 34s - loss: 0.0922 - acc: 0.9814 - val_loss: 0.0742 - val_acc: 0.9852
…
: 0.9962500026449561, 16: 0.9961458359534542, 17: 0.996500002592802, 18: 0.9966250020389755, 19: 0.9966875026623409, 20: 0.9968333355461557}}
Ready to train [C(256,3,1), C(512,3,1), D(1,1), GAP(10), SM(10)]
start, 0, 1, 0, 0, 28, 0, 0
conv, 1, 256, 3, 1, 28, 0, 0
conv, 2, 512, 3, 1, 28, 0, 0
dropout, 2, 1, 0, 0, 28, 1, 0
gap, 3, 0, 0, 0, 1, 0, 0
gap, 4, 0, 0, 0, 1, 0, 1
10
_________________________________________________________________
Layer (type)                 Output Shape              Param #
=================================================================
conv2d_43 (Conv2D)           (None, 28, 28, 256)       7168
_________________________________________________________________
conv2d_44 (Conv2D)           (None, 28, 28, 512)       1180160
_________________________________________________________________
dropout_21 (Dropout)         (None, 28, 28, 512)       0
_________________________________________________________________
average_pooling2d_5 (Average (None, 27, 27, 512)       0
_________________________________________________________________
flatten_15 (Flatten)         (None, 373248)            0
_________________________________________________________________
dense_15 (Dense)             (None, 10)                3732490
=================================================================
Total params: 4,919,818
Trainable params: 4,919,818
Non-trainable params: 0
_________________________________________________________________
Train on 48000 samples, validate on 12000 samples
Epoch 1/20
 - 212s - loss: 0.2263 - acc: 0.9610 - val_loss: 0.1072 - val_acc: 0.9778
Epoch 2/20
 - 204s - loss: 0.0804 - acc: 0.9832 - val_loss: 0.0744 - val_acc: 0.9837
…
844, 19: 0.9985208344335358, 20: 0.9987916678190232}}
Ready to train [C(256,3,1), C(512,1,1), D(1,2), C(64,5,1), C(256,3,1), D(2,2), SM(10)]
start, 0, 1, 0, 0, 28, 0, 0
conv, 1, 256, 3, 1, 28, 0, 0
conv, 2, 512, 1, 1, 28, 0, 0
dropout, 2, 1, 0, 0, 28, 2, 0
conv, 3, 64, 5, 1, 28, 0, 0
conv, 4, 256, 3, 1, 28, 0, 0
dropout, 4, 2, 0, 0, 28, 2, 0
conv, 5, 256, 3, 1, 28, 0, 1
10
_________________________________________________________________
Layer (type)                 Output Shape              Param #
=================================================================
conv2d_45 (Conv2D)           (None, 28, 28, 256)       7168
_________________________________________________________________
conv2d_46 (Conv2D)           (None, 28, 28, 512)       131584
_________________________________________________________________
dropout_22 (Dropout)         (None, 28, 28, 512)       0
_________________________________________________________________
conv2d_47 (Conv2D)           (None, 28, 28, 64)        819264
_________________________________________________________________
conv2d_48 (Conv2D)           (None, 28, 28, 256)       147712
_________________________________________________________________
dropout_23 (Dropout)         (None, 28, 28, 256)       0
_________________________________________________________________
flatten_16 (Flatten)         (None, 200704)            0
_________________________________________________________________
dense_16 (Dense)             (None, 10)                2007050
=================================================================
Total params: 3,112,778
Trainable params: 3,112,778
Non-trainable params: 0
_________________________________________________________________
Train on 48000 samples, validate on 12000 samples
Epoch 1/20
 - 210s - loss: 0.3067 - acc: 0.9546 - val_loss: 0.1453 - val_acc: 0.9753
Epoch 2/20
 - 207s - loss: 0.1052 - acc: 0.9830 - val_loss: 0.0905 - val_acc: 0.9848
…
40289, 19: 0.9982291681071123, 20: 0.9980208348482847}}
Ready to train [C(64,1,1), C(128,3,1), D(1,2), C(64,3,1), C(256,5,1), D(2,2), SM(10)]
start, 0, 1, 0, 0, 28, 0, 0
conv, 1, 64, 1, 1, 28, 0, 0
conv, 2, 128, 3, 1, 28, 0, 0
dropout, 2, 1, 0, 0, 28, 2, 0
conv, 3, 64, 3, 1, 28, 0, 0
conv, 4, 256, 5, 1, 28, 0, 0
dropout, 4, 2, 0, 0, 28, 2, 0
conv, 5, 256, 5, 1, 28, 0, 1
10
_________________________________________________________________
Layer (type)                 Output Shape              Param #
=================================================================
conv2d_49 (Conv2D)           (None, 28, 28, 64)        256
_________________________________________________________________
conv2d_50 (Conv2D)           (None, 28, 28, 128)       73856
_________________________________________________________________
dropout_24 (Dropout)         (None, 28, 28, 128)       0
_________________________________________________________________
conv2d_51 (Conv2D)           (None, 28, 28, 64)        73792
_________________________________________________________________
conv2d_52 (Conv2D)           (None, 28, 28, 256)       409856
_________________________________________________________________
dropout_25 (Dropout)         (None, 28, 28, 256)       0
_________________________________________________________________
flatten_17 (Flatten)         (None, 200704)            0
_________________________________________________________________
dense_17 (Dense)             (None, 10)                2007050
=================================================================
Total params: 2,564,810
Trainable params: 2,564,810
Non-trainable params: 0
_________________________________________________________________
Train on 48000 samples, validate on 12000 samples
Epoch 1/20
 - 111s - loss: 0.2732 - acc: 0.9540 - val_loss: 0.1201 - val_acc: 0.9844
Epoch 2/20
 - 114s - loss: 0.1009 - acc: 0.9839 - val_loss: 0.0878 - val_acc: 0.9848
…
